…
pretrain_path: c:\Users\user\Documents\GitHub\ict3104-team09-2022-binder\step\pretrained\ava_cls.pth
print_step: 500
proposal_path_train: None
proposal_path_val: None
reg_thresh: [0.2, 0.35, 0.5]
resume_path: Auto
sampling: uniform
save_root: c:\Users\user\Documents\GitHub\ict3104-team09-2022-binder\step\datasets\ava\cache\STEP-max3-i3d-two_branch/
save_step: 11465
scale_norm: 2
scheduler: cosine
selection_nms: False
selection_sampling: softmax
selection_score: score
start_epochs: 0
start_iteration: 0
stds: (1, 1, 1)
temporal_mode: predict
topk: 300
warmup_iters: 1000
weight_decay: 1e-07
TwoBranchNet(
  (i3d_conv): Sequential(
    (0): Mixed(
      (branch_0): Unit3Dpy(
        (conv3d): Conv3d(832, 256, kernel_size=(1, 1, 1), stride=(1, 1, 1), bias=False)
        (batch3d): BatchNorm3d(256, eps=1e-05, momentum=0.1, affine=True, track_running_stats=True)
      )
      (branch_1): Sequential(
        (0): Unit3Dpy(
          (conv3d): Conv3d(832, 160, kernel_size=(1, 1, 1), stride=(1, 1, 1), bias=False)
          (batch3d): BatchNorm3d(160, eps=1e-05, momentum=0.1, affine=True, track_running_stats=True)
        )
        (1): Unit3Dpy(
          (conv3d): Conv3d(160, 320, kernel_size=(3, 3, 3), stride=(1, 1, 1), padding=(1, 1, 1), bias=False)
          (batch3d): BatchNorm3d(320, eps=1e-05, momentum=0.1, affine=True, track_running_stats=True)
        )
      )
      (branch_2): Sequential(
        (0): Unit3Dpy(
          (conv3d): Conv3d(832, 32, kernel_size=(1, 1, 1), stride=(1, 1, 1), bias=False)
          (batch3d): BatchNorm3d(32, eps=1e-05, momentum=0.1, affine=True, track_running_stats=True)
        )
        (1): Unit3Dpy(
          (conv3d): Conv3d(32, 128, kernel_size=(3, 3, 3), stride=(1, 1, 1), padding=(1, 1, 1), bias=False)
          (batch3d): BatchNorm3d(128, eps=1e-05, momentum=0.1, affine=True, track_running_stats=True)
        )
      )
      (branch_3): Sequential(
        (0): MaxPool3dTFPadding(
          (pad): ConstantPad3d(padding=(1, 1, 1, 1, 1, 1), value=0)
          (pool): MaxPool3d(kernel_size=(3, 3, 3), stride=(1, 1, 1), padding=0, dilation=1, ceil_mode=True)
        )
        (1): Unit3Dpy(
          (conv3d): Conv3d(832, 128, kernel_size=(1, 1, 1), stride=(1, 1, 1), bias=False)
          (batch3d): BatchNorm3d(128, eps=1e-05, momentum=0.1, affine=True, track_running_stats=True)
        )
      )
    )
    (1): Mixed(
      (branch_0): Unit3Dpy(
        (conv3d): Conv3d(832, 384, kernel_size=(1, 1, 1), stride=(1, 1, 1), bias=False)
        (batch3d): BatchNorm3d(384, eps=1e-05, momentum=0.1, affine=True, track_running_stats=True)
      )
      (branch_1): Sequential(
        (0): Unit3Dpy(
          (conv3d): Conv3d(832, 192, kernel_size=(1, 1, 1), stride=(1, 1, 1), bias=False)
          (batch3d): BatchNorm3d(192, eps=1e-05, momentum=0.1, affine=True, track_running_stats=True)
        )
        (1): Unit3Dpy(
          (conv3d): Conv3d(192, 384, kernel_size=(3, 3, 3), stride=(1, 1, 1), padding=(1, 1, 1), bias=False)
          (batch3d): BatchNorm3d(384, eps=1e-05, momentum=0.1, affine=True, track_running_stats=True)
        )
      )
      (branch_2): Sequential(
        (0): Unit3Dpy(
          (conv3d): Conv3d(832, 48, kernel_size=(1, 1, 1), stride=(1, 1, 1), bias=False)
          (batch3d): BatchNorm3d(48, eps=1e-05, momentum=0.1, affine=True, track_running_stats=True)
        )
        (1): Unit3Dpy(
          (conv3d): Conv3d(48, 128, kernel_size=(3, 3, 3), stride=(1, 1, 1), padding=(1, 1, 1), bias=False)
          (batch3d): BatchNorm3d(128, eps=1e-05, momentum=0.1, affine=True, track_running_stats=True)
        )
      )
      (branch_3): Sequential(
        (0): MaxPool3dTFPadding(
          (pad): ConstantPad3d(padding=(1, 1, 1, 1, 1, 1), value=0)
          (pool): MaxPool3d(kernel_size=(3, 3, 3), stride=(1, 1, 1), padding=0, dilation=1, ceil_mode=True)
        )
        (1): Unit3Dpy(
          (conv3d): Conv3d(832, 128, kernel_size=(1, 1, 1), stride=(1, 1, 1), bias=False)
          (batch3d): BatchNorm3d(128, eps=1e-05, momentum=0.1, affine=True, track_running_stats=True)
        )
      )
    )
  )
  (downsample): Conv3d(1024, 256, kernel_size=(1, 1, 1), stride=(1, 1, 1))
  (dropout): Dropout(p=0.3, inplace=False)
  (global_cls): Conv3d(13568, 60, kernel_size=(1, 1, 1), stride=(1, 1, 1))
  (local_conv): Sequential(
    (0): Bottleneck_resample(
      (conv1): Conv2d(1088, 1024, kernel_size=(1, 1), stride=(1, 1), bias=False)
      (conv2): Conv2d(1088, 256, kernel_size=(1, 1), stride=(1, 1), bias=False)
      (conv3): Conv2d(256, 256, kernel_size=(3, 3), stride=(1, 1), padding=(1, 1), bias=False)
      (conv4): Conv2d(256, 1024, kernel_size=(1, 1), stride=(1, 1), bias=False)
      (relu): ReLU(inplace=True)
    )
    (1): Bottleneck(
      (conv1): Conv2d(1024, 256, kernel_size=(1, 1), stride=(1, 1), bias=False)
      (conv2): Conv2d(256, 256, kernel_size=(3, 3), stride=(1, 1), padding=(1, 1), bias=False)
      (conv3): Conv2d(256, 1024, kernel_size=(1, 1), stride=(1, 1), bias=False)
      (relu): ReLU(inplace=True)
    )
    (2): Bottleneck(
      (conv1): Conv2d(1024, 256, kernel_size=(1, 1), stride=(1, 1), bias=False)
      (conv2): Conv2d(256, 256, kernel_size=(3, 3), stride=(1, 1), padding=(1, 1), bias=False)
      (conv3): Conv2d(256, 1024, kernel_size=(1, 1), stride=(1, 1), bias=False)
      (relu): ReLU(inplace=True)
    )
  )
  (downsample2): Conv2d(1024, 256, kernel_size=(1, 1), stride=(1, 1))
  (local_reg): Linear(in_features=12544, out_features=4, bias=True)
  (neighbor_reg1): Linear(in_features=12544, out_features=4, bias=True)
  (neighbor_reg2): Linear(in_features=12544, out_features=4, bias=True)
)

TwoBranchNet(
  (i3d_conv): Sequential(
    (0): Mixed(
      (branch_0): Unit3Dpy(
        (conv3d): Conv3d(832, 256, kernel_size=(1, 1, 1), stride=(1, 1, 1), bias=False)
        (batch3d): BatchNorm3d(256, eps=1e-05, momentum=0.1, affine=True, track_running_stats=True)
      )
      (branch_1): Sequential(
        (0): Unit3Dpy(
          (conv3d): Conv3d(832, 160, kernel_size=(1, 1, 1), stride=(1, 1, 1), bias=False)
          (batch3d): BatchNorm3d(160, eps=1e-05, momentum=0.1, affine=True, track_running_stats=True)
        )
        (1): Unit3Dpy(
          (conv3d): Conv3d(160, 320, kernel_size=(3, 3, 3), stride=(1, 1, 1), padding=(1, 1, 1), bias=False)
          (batch3d): BatchNorm3d(320, eps=1e-05, momentum=0.1, affine=True, track_running_stats=True)
        )
      )
      (branch_2): Sequential(
        (0): Unit3Dpy(
          (conv3d): Conv3d(832, 32, kernel_size=(1, 1, 1), stride=(1, 1, 1), bias=False)
          (batch3d): BatchNorm3d(32, eps=1e-05, momentum=0.1, affine=True, track_running_stats=True)
        )
        (1): Unit3Dpy(
          (conv3d): Conv3d(32, 128, kernel_size=(3, 3, 3), stride=(1, 1, 1), padding=(1, 1, 1), bias=False)
          (batch3d): BatchNorm3d(128, eps=1e-05, momentum=0.1, affine=True, track_running_stats=True)
        )
      )
      (branch_3): Sequential(
        (0): MaxPool3dTFPadding(
          (pad): ConstantPad3d(padding=(1, 1, 1, 1, 1, 1), value=0)
          (pool): MaxPool3d(kernel_size=(3, 3, 3), stride=(1, 1, 1), padding=0, dilation=1, ceil_mode=True)
        )
        (1): Unit3Dpy(
          (conv3d): Conv3d(832, 128, kernel_size=(1, 1, 1), stride=(1, 1, 1), bias=False)
          (batch3d): BatchNorm3d(128, eps=1e-05, momentum=0.1, affine=True, track_running_stats=True)
        )
      )
    )
    (1): Mixed(
      (branch_0): Unit3Dpy(
        (conv3d): Conv3d(832, 384, kernel_size=(1, 1, 1), stride=(1, 1, 1), bias=False)
        (batch3d): BatchNorm3d(384, eps=1e-05, momentum=0.1, affine=True, track_running_stats=True)
      )
      (branch_1): Sequential(
        (0): Unit3Dpy(
          (conv3d): Conv3d(832, 192, kernel_size=(1, 1, 1), stride=(1, 1, 1), bias=False)
          (batch3d): BatchNorm3d(192, eps=1e-05, momentum=0.1, affine=True, track_running_stats=True)
        )
        (1): Unit3Dpy(
          (conv3d): Conv3d(192, 384, kernel_size=(3, 3, 3), stride=(1, 1, 1), padding=(1, 1, 1), bias=False)
          (batch3d): BatchNorm3d(384, eps=1e-05, momentum=0.1, affine=True, track_running_stats=True)
        )
      )
      (branch_2): Sequential(
        (0): Unit3Dpy(
          (conv3d): Conv3d(832, 48, kernel_size=(1, 1, 1), stride=(1, 1, 1), bias=False)
          (batch3d): BatchNorm3d(48, eps=1e-05, momentum=0.1, affine=True, track_running_stats=True)
        )
        (1): Unit3Dpy(
          (conv3d): Conv3d(48, 128, kernel_size=(3, 3, 3), stride=(1, 1, 1), padding=(1, 1, 1), bias=False)
          (batch3d): BatchNorm3d(128, eps=1e-05, momentum=0.1, affine=True, track_running_stats=True)
        )
      )
      (branch_3): Sequential(
        (0): MaxPool3dTFPadding(
          (pad): ConstantPad3d(padding=(1, 1, 1, 1, 1, 1), value=0)
          (pool): MaxPool3d(kernel_size=(3, 3, 3), stride=(1, 1, 1), padding=0, dilation=1, ceil_mode=True)
        )
        (1): Unit3Dpy(
          (conv3d): Conv3d(832, 128, kernel_size=(1, 1, 1), stride=(1, 1, 1), bias=False)
          (batch3d): BatchNorm3d(128, eps=1e-05, momentum=0.1, affine=True, track_running_stats=True)
        )
      )
    )
  )
  (downsample): Conv3d(1024, 256, kernel_size=(1, 1, 1), stride=(1, 1, 1))
  (dropout): Dropout(p=0.3, inplace=False)
  (global_cls): Conv3d(13568, 60, kernel_size=(1, 1, 1), stride=(1, 1, 1))
  (local_conv): Sequential(
    (0): Bottleneck_resample(
      (conv1): Conv2d(1088, 1024, kernel_size=(1, 1), stride=(1, 1), bias=False)
      (conv2): Conv2d(1088, 256, kernel_size=(1, 1), stride=(1, 1), bias=False)
      (conv3): Conv2d(256, 256, kernel_size=(3, 3), stride=(1, 1), padding=(1, 1), bias=False)
      (conv4): Conv2d(256, 1024, kernel_size=(1, 1), stride=(1, 1), bias=False)
      (relu): ReLU(inplace=True)
    )
    (1): Bottleneck(
      (conv1): Conv2d(1024, 256, kernel_size=(1, 1), stride=(1, 1), bias=False)
      (conv2): Conv2d(256, 256, kernel_size=(3, 3), stride=(1, 1), padding=(1, 1), bias=False)
      (conv3): Conv2d(256, 1024, kernel_size=(1, 1), stride=(1, 1), bias=False)
      (relu): ReLU(inplace=True)
    )
    (2): Bottleneck(
      (conv1): Conv2d(1024, 256, kernel_size=(1, 1), stride=(1, 1), bias=False)
      (conv2): Conv2d(256, 256, kernel_size=(3, 3), stride=(1, 1), padding=(1, 1), bias=False)
      (conv3): Conv2d(256, 1024, kernel_size=(1, 1), stride=(1, 1), bias=False)
      (relu): ReLU(inplace=True)
    )
  )
  (downsample2): Conv2d(1024, 256, kernel_size=(1, 1), stride=(1, 1))
  (local_reg): Linear(in_features=12544, out_features=4, bias=True)
  (neighbor_reg1): Linear(in_features=12544, out_features=4, bias=True)
  (neighbor_reg2): Linear(in_features=12544, out_features=4, bias=True)
)

TwoBranchNet(
  (i3d_conv): Sequential(
    (0): Mixed(
      (branch_0): Unit3Dpy(
        (conv3d): Conv3d(832, 256, kernel_size=(1, 1, 1), stride=(1, 1, 1), bias=False)
        (batch3d): BatchNorm3d(256, eps=1e-05, momentum=0.1, affine=True, track_running_stats=True)
      )
      (branch_1): Sequential(
        (0): Unit3Dpy(
          (conv3d): Conv3d(832, 160, kernel_size=(1, 1, 1), stride=(1, 1, 1), bias=False)
          (batch3d): BatchNorm3d(160, eps=1e-05, momentum=0.1, affine=True, track_running_stats=True)
        )
        (1): Unit3Dpy(
          (conv3d): Conv3d(160, 320, kernel_size=(3, 3, 3), stride=(1, 1, 1), padding=(1, 1, 1), bias=False)
          (batch3d): BatchNorm3d(320, eps=1e-05, momentum=0.1, affine=True, track_running_stats=True)
        )
      )
      (branch_2): Sequential(
        (0): Unit3Dpy(
          (conv3d): Conv3d(832, 32, kernel_size=(1, 1, 1), stride=(1, 1, 1), bias=False)
          (batch3d): BatchNorm3d(32, eps=1e-05, momentum=0.1, affine=True, track_running_stats=True)
        )
        (1): Unit3Dpy(
          (conv3d): Conv3d(32, 128, kernel_size=(3, 3, 3), stride=(1, 1, 1), padding=(1, 1, 1), bias=False)
          (batch3d): BatchNorm3d(128, eps=1e-05, momentum=0.1, affine=True, track_running_stats=True)
        )
      )
      (branch_3): Sequential(
        (0): MaxPool3dTFPadding(
          (pad): ConstantPad3d(padding=(1, 1, 1, 1, 1, 1), value=0)
          (pool): MaxPool3d(kernel_size=(3, 3, 3), stride=(1, 1, 1), padding=0, dilation=1, ceil_mode=True)
        )
        (1): Unit3Dpy(
          (conv3d): Conv3d(832, 128, kernel_size=(1, 1, 1), stride=(1, 1, 1), bias=False)
          (batch3d): BatchNorm3d(128, eps=1e-05, momentum=0.1, affine=True, track_running_stats=True)
        )
      )
    )
    (1): Mixed(
      (branch_0): Unit3Dpy(
        (conv3d): Conv3d(832, 384, kernel_size=(1, 1, 1), stride=(1, 1, 1), bias=False)
        (batch3d): BatchNorm3d(384, eps=1e-05, momentum=0.1, affine=True, track_running_stats=True)
      )
      (branch_1): Sequential(
        (0): Unit3Dpy(
          (conv3d): Conv3d(832, 192, kernel_size=(1, 1, 1), stride=(1, 1, 1), bias=False)
          (batch3d): BatchNorm3d(192, eps=1e-05, momentum=0.1, affine=True, track_running_stats=True)
        )
        (1): Unit3Dpy(
          (conv3d): Conv3d(192, 384, kernel_size=(3, 3, 3), stride=(1, 1, 1), padding=(1, 1, 1), bias=False)
          (batch3d): BatchNorm3d(384, eps=1e-05, momentum=0.1, affine=True, track_running_stats=True)
        )
      )
      (branch_2): Sequential(
        (0): Unit3Dpy(
          (conv3d): Conv3d(832, 48, kernel_size=(1, 1, 1), stride=(1, 1, 1), bias=False)
          (batch3d): BatchNorm3d(48, eps=1e-05, momentum=0.1, affine=True, track_running_stats=True)
        )
        (1): Unit3Dpy(
          (conv3d): Conv3d(48, 128, kernel_size=(3, 3, 3), stride=(1, 1, 1), padding=(1, 1, 1), bias=False)
          (batch3d): BatchNorm3d(128, eps=1e-05, momentum=0.1, affine=True, track_running_stats=True)
        )
      )
      (branch_3): Sequential(
        (0): MaxPool3dTFPadding(
          (pad): ConstantPad3d(padding=(1, 1, 1, 1, 1, 1), value=0)
          (pool): MaxPool3d(kernel_size=(3, 3, 3), stride=(1, 1, 1), padding=0, dilation=1, ceil_mode=True)
        )
        (1): Unit3Dpy(
          (conv3d): Conv3d(832, 128, kernel_size=(1, 1, 1), stride=(1, 1, 1), bias=False)
          (batch3d): BatchNorm3d(128, eps=1e-05, momentum=0.1, affine=True, track_running_stats=True)
        )
      )
    )
  )
  (downsample): Conv3d(1024, 256, kernel_size=(1, 1, 1), stride=(1, 1, 1))
  (dropout): Dropout(p=0.3, inplace=False)
  (global_cls): Conv3d(13568, 60, kernel_size=(1, 1, 1), stride=(1, 1, 1))
  (local_conv): Sequential(
    (0): Bottleneck_resample(
      (conv1): Conv2d(1088, 1024, kernel_size=(1, 1), stride=(1, 1), bias=False)
      (conv2): Conv2d(1088, 256, kernel_size=(1, 1), stride=(1, 1), bias=False)
      (conv3): Conv2d(256, 256, kernel_size=(3, 3), stride=(1, 1), padding=(1, 1), bias=False)
      (conv4): Conv2d(256, 1024, kernel_size=(1, 1), stride=(1, 1), bias=False)
      (relu): ReLU(inplace=True)
    )
    (1): Bottleneck(
      (conv1): Conv2d(1024, 256, kernel_size=(1, 1), stride=(1, 1), bias=False)
      (conv2): Conv2d(256, 256, kernel_size=(3, 3), stride=(1, 1), padding=(1, 1), bias=False)
      (conv3): Conv2d(256, 1024, kernel_size=(1, 1), stride=(1, 1), bias=False)
      (relu): ReLU(inplace=True)
    )
    (2): Bottleneck(
      (conv1): Conv2d(1024, 256, kernel_size=(1, 1), stride=(1, 1), bias=False)
      (conv2): Conv2d(256, 256, kernel_size=(3, 3), stride=(1, 1), padding=(1, 1), bias=False)
      (conv3): Conv2d(256, 1024, kernel_size=(1, 1), stride=(1, 1), bias=False)
      (relu): ReLU(inplace=True)
    )
  )
  (downsample2): Conv2d(1024, 256, kernel_size=(1, 1), stride=(1, 1))
  (local_reg): Linear(in_features=12544, out_features=4, bias=True)
  (neighbor_reg1): Linear(in_features=12544, out_features=4, bias=True)
  (neighbor_reg2): Linear(in_features=12544, out_features=4, bias=True)
)

